cGAN_Code/Molecular_Dynamics_GAN/output/decoder-gan.pt (torch, 155031 bytes, 6 tensors)

mlp1.weight f4 [50, 32]
-1.9231027 0.11802652 -0.102681905 0.056460164 0.082588635 -0.07221186 0.008486257 0.11407762
-0.025251828 -0.051868293 -0.010659249 -0.003277135 0.09870206 -0.054143816 -0.044783387 -0.036495764
-0.124517694 -0.061440635 -0.09367876 0.011122476 -0.031051222 -0.051727 -0.06828456 0.04593418
-0.027694624 0.083443396 0.00211538 0.036322862 -0.030826159 -0.050988685 -0.030543823 -0.002191915
2.5239885 -0.036657166 0.05908249 -0.18425581 0.048793532 -0.053795308 -0.002446848 -0.044022467
-0.004604475 0.10421002 -0.10050022 -0.0036858467 -0.08291676 -0.08865913 0.059320863 0.08919242
-0.11291801 0.018580534 -0.078426726 -0.017066665 0.074236505 -0.097125605 0.038093418 0.019866178
-0.10834845 0.014507608 0.12678668 0.04207088 0.12028788 -0.13067317 0.019591335 0.11220578
2.5193331 0.13876855 -0.020006893 0.10115974 -0.16084424 -0.04835158 0.033818245 -0.056194525
0.107469976 -0.06811301 -0.35606548 -0.101274766 -0.22103642 -0.14703466 -0.13250887 0.010987097
0.06871376 -0.039370727 0.12657133 0.12701829 -0.16754578 -0.06840037 -0.31150326 -0.027974395
-0.36836556 -0.19168071 -0.028020846 -0.044218574 -0.13501571 0.10598703 0.23939517 0.026822548
2.6134872 -0.044570874 -0.19475482 0.11541275 0.094382554 -0.027003443 -0.03367683 0.09733227
-0.111725114 -0.059878446 -0.029955316 -0.010857536 -0.119851336 0.14017186 0.13215277 0.12564452
0.06656372 0.08243267 0.10220357 -0.096056186 -0.1691494 0.09570429 -0.1997748 -0.0009466531
0.2725924 0.13391991 -0.12362864 -0.13590178 0.050789475 0.19370802 -0.067269 -0.010693142
2.5868351 -0.120120086 0.081112765 -0.16787106 -0.094949506 0.24155113 0.099450335 -0.11472167
-0.06088914 -0.07042945 -0.106530495 0.026529316 -0.038588498 -0.12913726 0.06274522 0.013747473
-0.0950305 0.1843963 0.061746404 0.08083353 -0.10925514 -0.03895493 0.17601006 -0.13069567
0.14165373 -0.20014541 0.092485696 0.12857386 -0.1934923 0.15289606 -0.0845033 -0.03191248
3.5903993 0.06860718 -0.01658667 0.1062978 -0.012249321 -0.13974252 0.02179793 -0.02052984
0.015086679 -0.025469437 0.10373904 0.025254434 0.022358758 -0.023571648 0.030405033 -0.04169743
0.007710177 0.010247382 0.035292435 -0.060255684 -0.093496956 -0.041313786 0.01961704 0.044886578
0.009241985 -0.035140973 0.034091886 -0.02347406 0.0254892 -0.03638326 -0.013282456 0.027054895
-2.0602844 0.065422095 -0.001092571 0.04967635 -0.12901305 -0.11240142 0.021116687 -0.0138617065
0.21067606 0.07090249 -0.014364542 0.13049516 -0.010269787 -0.084161505 -0.035120443 0.034932543
0.06466588 -0.18626225 -0.12547925 0.022259915 -0.1331071 -0.06007118 -0.040358722 0.023926724
0.05659417 0.009742525 0.100153446 0.08886506 -0.20988458 -0.04472237 -0.0054649417 0.031845022
2.4226274 -0.059839465 -0.008670301 0.05122879 0.029908417 -0.25373238 0.17103484 -0.37547377
-0.08739239 -0.03282336 0.14003871 -0.16717699 0.06473971 0.039309748 0.14345202 -0.24555275
0.07750166 0.11574902 0.11817262 -0.0123873 0.14023426 -0.2201381 -0.048360858 0.30791482
0.059545144 0.22192116 0.18031631 0.094997786 -0.042977475 0.1535468 -0.053452928 0.2537337
00000000: 3b28 f6bf e3b7 f13d e44a d2bd c642 673d
00000010: 3b24 a93d d0e3 93bd f109 0b3c 87a1 e93d
00000020: ecdc cebc d973 54bd 21a4 2ebc 34c5 56bb
00000030: 4e24 ca3d e8c5 5dbd c96e 37bd 957c 15bd
00000040: 2203 ffbd 2da9 7bbd a6da bfbd 0c3b 363c
00000050: 225f febc b1df 53bd c7d8 8bbd 7b25 3c3d
00000060: d6df e2bc 5fe4 aa3d 30a2 0a3b 48c7 143d
00000070: 2487 fcbc 83d9 50bd 0a37 fabc 3ba6 0fbb
00000080: 0789 2140 d325 16bd 7b00 723d 8ead 3cbe
00000090: badb 473d 7858 5cbd 4c5b 20bb e750 34bd
000000a0: 23e1 96bb 106c d53d 0fd3 cdbd 3f8e 71bb
000000b0: 43d0 a9bd eb92 b5bd 6ffa 723d 84aa b63d
000000c0: 8f41 e7bd 3436 983c 319e a0bd 64cf 8bbc
000000d0: 4f09 983d cae9 c6bd d807 1c3d 65be a23c
000000e0: cbe5 ddbd 51b1 6d3c 5ed4 013e 8452 2c3d
000000f0: 7e59 f63d 30cf 05be 027e a03c 25cc e53d
00000100: c13c 2140 5819 0e3e 7fe5 a3bc d62c cf3d
00000110: 5ab4 24be 4e0c 46bd 0085 0a3d 3b2c 66bd
00000120: 3819 dc3d d57e 8bbd 374e b6be 2569 cfbd
00000130: 5f57 62be 4190 16be 68b0 07be 3a03 343c
00000140: cdb9 8c3d 3343 21bd ea9b 013e 1511 023e
00000150: 1f91 2bbe 7e15 8cbd 5b7d 9fbe 8f2a e5bc
00000160: 699a bcbe f347 44be f98b e5bc 891e 35bd
00000170: 8f41 0abe ba0f d93d 0224 753e f6ba db3c
00000180: 6043 2740 f38f 36bd cf6d 47be 855d ec3d
00000190: a44b c13d 5336 ddbc b7f0 09bd 2456 c73d
000001a0: 23d0 e4bd 1a43 75bd da64 f5bc cfe3 31bc
000001b0: 9e74 f5bd 3689 0f3e 0e53 073e f5a8 003e
000001c0: 8f52 883d 76d2 a83d 1b50 d13d 1bb9 c4bd
000001d0: 8035 2dbe 9c00 c43d c491 4cbe d028 78ba
000001e0: 3b91 8b3e 4d22 093e 0331 fdbd d629 0bbe
000001f0: a008 503d 655b 463e 54c4 89bd 4a32 2fbc
00000200: b58e 2540 8501 f6bd 731e a63d 64e6 2bbe
00000210: e374 c2bd 2e59 773e 9eac cb3d 32f3 eabd
00000220: e466 79bd 513d 90bd a92c dabd 0254 d93c
00000230: f90e 1ebd 8f3c 04be 9180 803d 153d 613c
00000240: 5a9f c2bd 62d2 3c3e cce9 7c3d 0d8c a53d
00000250: 29c1 dfbd 348f 1fbd fb3b 343e 16d5 05be
00000260: ad0d 113e ebf2 4cbe 2469 bd3d dea8 033e
00000270: d822 46be c990 1c3e 1110 adbd a9b6 02bd
00000280: 1ac9 6540 ec81 8c3d c5e0 87bc a9b2 d93d
00000290: 60b1 48bc aa18 0fbe 9391 b23c 322e a8bc
000002a0: 1e2e 773c 48a5 d0bc 2275 d43d 63e2 ce3c
000002b0: b729 b73c 5419 c1bc fa13 f93c edca 2abd
000002c0: a7a5 fc3b a3e4 273c cd8e 103d aace 76bd
000002d0: 557b bfbd a538 29bd eab3 a03c fdda 373d
000002e0: b26b 173c fbef 0fbd efa3 0b3d ac4c c0bc
000002f0: bace d03c 9d06 15bd a99e 59bc 3aa2 dd3c
00000300: b3db 03c0 05fc 853d 9934 8fba 6e79 4b3d
00000310: ff1b 04be b732 e6bd e7fc ac3c 361c 63bc
00000320: 77bb 573e 5335 913d 4259 6bbc 86a0 053e
00000330: 9c42 28bc de5c acbd 74da 0fbd 6d15 0f3d
00000340: 8b6f 843d 88bb 3ebe a27d 00be 6d5a b63c
00000350: 3a4d 08be 330d 76bd 304f 25bd fa01 c43c
00000360: 4acf 673d 1d9f 1f3c 401d cd3d e2fe b53d
00000370: fceb 56be ce2e 37bd 4113 b3bb ed6f 023d
00000380: 540c 1b40 3a1a 75bd e10d 0ebc 48d5 513d
00000390: 7f02 f53c 36e9 81be c223 2f3e 193e c0be
000003a0: c8fa b2bd ca71 06bd 4f66 0f3e 7230 2bbe
000003b0: 4196 843d 4203 213d 16e5 123e 2e72 7bbe
000003c0: 31b9 9e3d d20d ed3d 7d04 f23d 1af4 4abc
000003d0: 9299 0f3e e26b 61be 0916 46bd 03a7 9d3e
000003e0: 9ce5 733d 4d3f 633e d7a4 383e 338e c23d
000003f0: 2609 30bd 5f3b 1d3e 75f1 5abd 62e9 813e

mlp1.bias f4 [50]
1.340431 -1.2806364 -0.6079166 -0.9296698 -0.79881394 2.56433 1.0164326 -0.98257536
1.252475 -1.3029722 0.98851615 -0.5696944 0.5894395 -2.186447 -0.52821034 0.31480354
1.8835769 -0.47707173 -0.9114486 1.8583587 -1.5194753 -1.0207001 -0.66017747 -0.87858826
-1.8177909 -2.0463114 -1.2320383 -1.1147711 -1.2419529 -1.1542313 2.3713698 -1.7277302
-0.26278365 -1.4683292 -1.2143253 -1.4098982 -1.1988845 -1.4238102 -1.9034976 1.1873018
-1.5619388 -0.33825427 -1.5196104 1.1573514 -0.92618614 0.81553435 1.0319463 -1.42182
-1.4099644 0.3458747
00000000: 3e93 ab3f e5eb a3bf 6ca0 1bbf d7fe 6dbf
00000010: 127f 4cbf fc1d 2440 771a 823f 0f8a 7bbf
00000020: 1a51 a03f cbc7 a6bf 650f 7d3f 7ed7 11bf
00000030: 82e5 163f bfee 0bc0 cb38 07bf ee2d a13e
00000040: 0c19 f13f bf42 f4be b254 69bf b3de ed3f
00000050: 2b7e c2bf 4da6 82bf 6401 29bf 29eb 60bf
00000060: 5fad e8bf c4f6 02c0 6eb3 9dbf d2b0 8ebf
00000070: 50f8 9ebf dabd 93bf 86c4 1740 4326 ddbf
00000080: 948b 86be 36f2 bbbf 036f 9bbf 8b77 b4bf
00000090: 0c75 99bf 6a3f b6bf cfa5 f3bf 81f9 973f
000000a0: 9ced c7bf aa2f adbe 9882 c2bf 1724 943f
000000b0: 891a 6dbf dcc6 503f d116 843f 33fe b5bf
000000c0: b779 b4bf 7d16 b13e

mlp2.weight f4 [100, 50]
-0.7627581 -0.87838095 -0.8462483 -0.86153305 -0.7739651 -0.8138621 -0.765573 -0.80866134
-0.7486475 -0.8929156 -0.7410529 -1.0010889 -0.8637948 -0.557625 -0.83532435 -0.77616
-0.899531 -0.97018546 -0.60218185 -0.7186046 -0.9980466 -0.97431386 -0.663345 -1.0092341
-0.7007367 -0.6937654 -0.8212325 -0.8296168 -0.66144264 -0.7813492 -0.8680946 -0.6793442
-0.78919834 -0.8891641 -0.85523075 -0.7523726 -0.7022531 -0.7575892 -0.6558607 -0.7359357
-0.8695421 -0.7982684 -0.9235136 -1.02652 -0.81807625 -1.0150963 -0.77659494 -0.69857424
-0.8959622 -0.9917254 -0.85668385 -0.6664466 -0.6029324 -0.57757074 -0.69019943 -0.9133979
-0.6540007 -0.7456159 -0.74502945 -0.5393371 -0.5952106 -0.54459524 -0.8762353 -0.72488755
-0.56624 -0.7605055 -0.79483134 -0.6133039 -0.38582245 -0.8735969 -0.6165977 -0.7647241
-0.41222718 -0.49872646 -0.6061741 -0.6829324 -0.7053051 -0.58270466 -0.8604483 -0.66767055
-0.580837 -0.5404759 -0.5972267 -0.44288093 -0.6019111 -0.51718485 -0.71331877 -0.7602268
-0.5159321 -0.86548173 -0.66331357 -0.74405575 -0.69028676 -0.6488259 -0.66709137 -0.7458757
-0.6879367 -0.53255576 -0.64324677 -0.5770263 -0.9831233 -0.8247528 -0.9100061 -0.8143325
-0.72288316 -0.9360631 -0.78835535 -0.9703894 -0.797993 -0.75125176 -0.72955334 -0.9657002
-0.67448664 -0.822742 -0.8903766 -0.83784235 -0.98147595 -0.7877871 -0.59696525 -0.9181101
-0.86909217 -0.67741704 -0.8233989 -0.992516 -0.83792883 -0.75943357 -0.9228658 -0.65247273
-0.6630848 -0.69902873 -1.0060121 -0.7151743 -0.79487926 -0.81293505 -0.75613886 -0.6889236
-0.8321355 -0.81760037 -0.76525533 -0.7799156 -0.87052727 -0.7712534 -0.82064074 -0.7150526
-0.75442326 -0.8628126 -0.84117466 -0.76086813 -0.99299055 -0.8023358 -0.3557633 0.2600647
0.14538825 0.19816826 0.20088547 -0.13536045 -0.44448167 0.06809312 0.10925393 0.12607118
-0.0812536 0.105804004 -0.35679707 0.81019264 0.1426977 -0.03227611 -0.21693642 0.15911765
0.1964938 -0.2554093 0.24925135 0.08082496 0.12747402 0.17145401 0.31608906 0.37396303
0.38357478 0.050292656 0.020492086 0.18537956 -0.116418175 0.3290967 0.06370876 0.09493368
0.1732385 0.34642532 0.1715234 0.061330628 0.44343784 -0.26263785 0.300054 -0.05835179
-0.046857804 0.107148305 0.15886992 -0.3102521 -0.23154552 0.13507138 0.19346398 0.08292102
-0.7454876 -0.8109626 -1.0534602 -0.7043645 -0.97375596 -1.0354471 -1.0464717 -0.7046692
-0.9542195 -0.88500655 -0.75224596 -0.82907736 -0.8306032 -0.66588885 -0.61747503 -0.86981887
-0.7517477 -0.71732885 -0.6203641 -0.88032573 -0.8543735 -0.83755994 -0.77062094 -0.92801493
-0.73771596 -0.7897465 -0.87949026 -0.8347748 -0.8507982 -0.8900024 -0.82168233 -0.6604076
-0.940119 -0.7117546 -0.6355668 -0.763257 -0.60727215 -0.8685497 -0.7241803 -0.85624915
-0.76244974 -0.73591375 -0.76178575 -0.8338397 -0.8675561 -0.8933015 -0.6187204 -0.72829765
-0.70819795 -0.74587905 0.049512938 -0.23309696 -0.26069024 -0.586924 -0.4440698 -0.17806304
00000000: 1d44 43bf 93dd 60bf bba3 58bf 6e8d 5cbf
00000010: 9422 46bf 4459 50bf 98fc 43bf 6e04 4fbf
00000020: 5da7 3fbf 1e96 64bf a5b5 3dbf ae23 80bf
00000030: a821 5dbf 83c0 0ebf d1d7 55bf 6cb2 46bf
00000040: aa47 66bf 135e 78bf 9728 1abf 79f6 37bf
00000050: fb7f 7fbf a26c 79bf fad0 29bf 952e 81bf
00000060: 7b63 33bf 9c9a 31bf 4b3c 52bf c461 54bf
00000070: 4e54 29bf 8006 48bf 733b 5ebf 80e9 2dbf
00000080: e708 4abf 42a0 63bf 67f0 5abf 7e9b 40bf
00000090: dcc6 33bf 5ef1 41bf 7de6 27bf 4866 3cbf
000000a0: 509a 5ebf 515b 4cbf 636b 6cbf 0265 83bf
000000b0: 726d 51bf adee 81bf edce 46bf c3d5 32bf
000000c0: c75d 65bf b7e1 7dbf a24f 5bbf 3f9c 2abf
000000d0: c759 1abf addb 13bf e9b0 30bf 72d4 69bf
000000e0: 976c 27bf afe0 3ebf 40ba 3ebf ff11 0abf
000000f0: b95f 18bf 986a 0bbf f550 60bf 3b92 39bf
00000100: 1bf5 10bf 7db0 42bf 117a 4bbf 7c01 1dbf
00000110: 858a c5be 0ca4 5fbf 59d9 1dbf f5c4 43bf
00000120: 710f d3be 1359 ffbe 3a2e 1bbf a8d4 2ebf
00000130: e08e 34bf 222c 15bf 5746 5cbf 75ec 2abf
00000140: bcb1 14bf a15c 0abf d9e3 18bf 4ac1 e2be
00000150: d916 1abf 3a66 04bf 0f9c 36bf 399e 42bf
00000160: 2014 04bf 3690 5dbf ebce 29bf 707a 3ebf
00000170: a2b6 30bf 7419 26bf 80c6 2abf b6f1 3ebf
00000180: 9f1c 30bf 9355 08bf d2ab 24bf ffb7 13bf
00000190: f8ad 7bbf 0023 53bf 29f6 68bf 1878 50bf
000001a0: df0e 39bf d5a1 6fbf a8d1 49bf 716b 78bf
000001b0: 4549 4cbf 0952 40bf 02c4 3abf 2138 77bf
000001c0: 28ab 2cbf 389f 52bf b9ef 63bf d67c 56bf
000001d0: 0242 7bbf 6aac 49bf b7d2 18bf 4309 6bbf
000001e0: d37c 5ebf 346b 2dbf 45ca 52bf 8715 7ebf
000001f0: 8182 56bf 3d6a 42bf ef40 6cbf 7408 27bf
00000200: edbf 29bf 8cf3 32bf 01c5 80bf aa15 37bf
00000210: 357d 4bbf 831c 50bf 5192 41bf 4c5d 30bf
00000220: d506 55bf 424e 51bf c6e7 43bf 8ca8 47bf
00000230: e0da 5ebf dd70 45bf 8315 52bf b00d 37bf
00000240: e221 41bf 49e1 5cbf 3957 57bf 41c8 42bf
00000250: a134 7ebf e165 4dbf 9b26 b6be 3327 853e
00000260: a8e0 143e 9fec 4a3e ecb4 4d3e ee9b 0abe
00000270: 1a93 e3be 6874 8b3d 86c0 df3d ce18 013e
00000280: 4a68 a6bd c5af d83d 1bae b6be c968 4f3f
00000290: 591f 123e f433 04bd 9524 5ebe bdef 223e
000002a0: ac35 493e 02c5 82be bf3b 7f3e 8e87 a53d
000002b0: 8d88 023e a491 2f3e 6dd6 a13e 1578 bf3e
000002c0: ea63 c43e acff 4d3d 05df a73c 24d4 3d3e
000002d0: a76c eebd 5d7f a83e bd79 823d 976c c23d
000002e0: 6f65 313e a95e b13e d5a3 2f3e d335 7b3d
000002f0: 490a e33e 7878 86be aea0 993e 4902 6fbd
00000300: f8ed 3fbd 9270 db3d ccae 223e 5dd9 9ebe
00000310: 451a 6dbe 2750 0a3e 6c1b 463e 7fd2 a93d
00000320: 46d8 3ebf 3f9b 4fbf c9d7 86bf 3b51 34bf
00000330: 1248 79bf 8889 84bf c9f2 85bf 3365 34bf
00000340: bb47 74bf ca8f 62bf 3193 40bf 6a3e 54bf
00000350: 69a2 54bf b177 2abf d812 1ebf 73ac 5ebf
00000360: 8a72 40bf dda2 37bf 2fd0 1ebf 075d 61bf
00000370: 39b8 5abf 546a 56bf 6a47 45bf 6392 6dbf
00000380: f4da 3cbf d42c 4abf 4626 61bf cdb3 55bf
00000390: e9cd 59bf 33d7 63bf c659 52bf 7910 29bf
000003a0: a4ab 70bf 8d35 36bf 81b4 22bf d064 43bf
000003b0: 3076 1bbf 4659 5ebf e163 39bf 2533 5bbf
000003c0: e82f 43bf d864 3cbf 6404 43bf 8576 55bf
000003d0: 2818 5ebf 68af 64bf 7664 1ebf b771 3abf
000003e0: 764c 35bf eef1 3ebf 14ce 4a3d f8b0 6ebe
000003f0: 3179 85be a740 16bf 1e5d e3be 2856 36be

mlp2.bias f4 [100]
-1.1393222 -0.8215334 -1.0215951 -0.50756407 -1.1062926 -0.44196886 -0.27509457 -1.1685379
-1.046757 -1.1947092 -0.9626349 -0.22174425 -1.1913859 -0.4031748 -0.10493603 -1.060641
-0.9640691 -1.0571097 -1.1957722 0.6634606 -0.8131797 -0.77731574 -0.2853756 0.09466102
-0.65517664 -0.2054076 -0.04804677 -0.9720271 -1.0849334 -0.8294421 0.22619711 -0.98614275
-0.95509565 -0.9546202 -0.11635459 -0.5197009 0.9559881 -0.44435808 -1.096148 -0.87052184
-1.1189132 0.095456876 0.121959805 -0.7901552 0.61369085 -0.30472654 -0.86653566 -0.9864737
-1.1212881 -0.19080484 -1.0865986 -0.18025258 0.052270703 -1.1311673 -1.1396159 -0.643892
-0.9303377 -0.9907807 -0.27680033 -0.9941199 -0.8494773 -1.1247523 -1.068813 -0.66309154
-1.0042088 -1.1009251 -1.1750774 -0.08040825 -0.39743522 -1.2059313 -1.1803762 -0.19876039
-0.995786 -0.77735454 -0.9993299 0.033395782 -1.0167783 -0.12264722 -0.315073 -0.63088334
-1.0659117 -1.0603036 -1.0196563 -1.0105098 -1.1925234 0.0005161243 -0.9123319 -0.92426646
-0.53259194 -1.0294774 0.16964297 -1.0642453 0.4444018 -1.0194255 -0.8451076 -1.1383185
-0.9575196 -1.1840795 -0.992064 -1.1459284
00000000: 4fd5 91bf 0350 52bf a1c3 82bf b8ef 01bf
00000010: ff9a 8dbf be49 e2be 32d9 8cbe a692 95bf
00000020: 22fc 85bf 3bec 98bf 3e6f 76bf ed10 63be
00000030: 557f 98bf ed6c cebe b4e8 d6bd 16c3 87bf
00000040: 3ccd 76bf 5f4f 87bf 100f 99bf 8ed8 293f
00000050: 8b2c 50bf 2afe 46bf c01c 92be a3dd c13d
00000060: a8b9 27bf 5f56 52be b1cc 44bd c5d6 78bf
00000070: 19df 8abf 5156 54bf 37a0 673e da73 7cbf
00000080: 2681 74bf fd61 74bf 514b eebd 1e0b 05bf
00000090: a3bb 743f e782 e3be 944e 8cbf 85da 5ebf
000000a0: 8c38 8fbf e57e c33d 10c6 f93d 9c47 4abf
000000b0: d81a 1d3f 1e05 9cbe 48d5 5dbf 8a89 7cbf
000000c0: 5e86 8fbf 5862 43be aa15 8bbf 2294 38be
000000d0: ce19 563d 17ca 90bf efde 91bf 1bd6 24bf
000000e0: 9d2a 6ebf cea3 7dbf c6b8 8dbe a47e 7ebf
000000f0: 5877 59bf e2f7 8fbf ddce 88bf 5ec0 29bf
00000100: ea89 80bf 1deb 8cbf f068 96bf 15ad a4bd
00000110: a17c cbbe f55b 9abf 9116 97bf d887 4bbe
00000120: d5eb 7ebf b500 47bf 16d4 7fbf 04ca 083d
00000130: cb25 82bf 772e fbbd 4051 a1be 9281 21bf
00000140: cb6f 88bf 07b8 87bf 1984 82bf 6358 81bf
00000150: 9ba4 98bf 844c 073a 958e 69bf ba9c 6cbf
00000160: f257 08bf eac5 83bf e3b6 2d3e 3139 88bf
00000170: a288 e33e 897c 82bf f958 58bf 6cb4 91bf
00000180: 0120 75bf eb8f 97bf e8f7 7dbf c8ad 92bf

mlp3.weight f4 [312, 100]
-0.5036815 -0.49683696 -0.35087755 1.040157 -0.51490813 -0.005039151 -0.7381529 -0.37676293
-0.23739028 -0.4626212 -0.3895465 -0.7553164 -0.37295464 -0.275838 1.252327 -0.4214797
-0.44629803 -0.3864838 -0.35419065 -0.40042716 -0.27864859 -0.30230838 -0.8354425 -0.54002064
-0.09173873 0.11331812 -0.20387983 -0.48979834 -0.3889974 -0.18825248 -0.8013838 -0.31687436
-0.3523757 -0.15078449 -0.55273974 -0.43383038 -0.45454887 -0.2714215 -0.41609573 -0.22441351
-0.56601167 -0.07905284 -0.45325273 -0.26840594 -0.6385791 -0.48250672 -0.2797881 -0.5032129
-0.42999008 -0.8943722 -0.5455576 -0.81948245 -0.068099566 -0.49176267 -0.46442023 -0.1144258
-0.46365544 -0.36418924 -0.44460645 1.2760037 -0.28892368 -0.45789364 -0.47945845 -0.46979594
-0.42027333 -0.41068286 -0.5554321 1.0332861 -0.34316206 -0.43239173 -0.41984197 -0.14663976
-0.13877596 -0.28829044 -0.29829183 -0.06207532 -0.14378668 -0.49748224 1.435323 1.1352834
-0.49729773 -0.31311938 -0.34612826 -0.34210733 -0.4171381 0.6816521 -0.5388974 -0.5082439
-0.30347988 -0.40180033 -0.24391176 -0.5028666 -0.6847327 -0.3460133 -0.4802308 -0.33522916
-0.31785515 -0.30574626 -0.4252618 -0.4218962 0.04261744 0.010994493 0.16177543 2.2502158
0.021760123 -0.1258247 -0.44215336 -0.0020643861 0.19407433 0.19411808 0.07882887 -0.42790043
0.052453663 -0.2586192 2.1858013 0.09951314 -0.024356412 0.052475765 0.22137369 -0.585281
-0.3246663 -0.19501227 -0.48132008 -0.65649927 -0.2920886 0.016910033 -0.020122264 0.1977326
-0.08475821 -0.30869874 -0.70749414 -0.05742465 0.02491806 -0.11414002 -0.533381 -0.27356485
-0.89929414 -0.4384538 0.12090049 -0.21240929 0.118630745 0.050166324 -0.42562497 -0.13069586
-0.83283794 -0.39706355 -0.17293563 0.03854188 0.17924403 -0.56338495 0.14651532 -0.6635648
-0.31339145 0.08432713 0.16662042 -0.25063357 0.18315142 0.092625044 -0.414187 2.1051617
-0.1544618 -0.0998891 0.11903 -0.22417328 -0.0003163652 0.17338319 0.05028745 1.9136368
-0.2704381 0.20210142 0.19596882 -0.41387323 -0.074363075 -0.03011963 0.105965585 -0.25914437
-0.20867452 -0.31720638 1.8839567 1.8724641 0.007752654 0.07405124 -0.040527508 0.13020155
0.040703237 0.59297466 0.047092292 -0.025030741 -0.3947415 0.030101163 -0.66132605 0.00023668332
-0.7532187 -0.009255963 0.07867199 0.01214627 -0.035866518 -0.06040495 -0.07394287 -0.056858245
0.48117816 0.32734057 0.51923424 1.1821635 0.49119452 -0.23711306 0.49918297 0.48047173
0.3957836 0.40189993 0.3994996 0.13294503 0.5429206 -0.24338235 1.2103304 0.5388394
0.42524216 0.35876977 0.5386046 0.15646866 0.043846205 -0.042977747 0.0621161 -0.07570156
-0.07636256 -0.28586105 -0.19280133 0.5319968 0.1924878 -0.12022111 0.10492725 0.33641252
0.52162254 0.12819849 -0.53235966 0.10018621 0.06954117 -0.2248703 0.46687192 0.05424451
0.39507094 0.07446035 0.31929338 0.42237574 -0.024024036 -0.12273954 0.2594085 0.41501322
0.5647996 0.40161377 0.3794592 0.04704497 -0.2598547 0.38561025 0.5477018 -0.11120192
00000000: 45f1 00bf 6a61 febe 39a6 b3be dd23 853f
00000010: 05d1 03bf 761f a5bb 97f7 3cbf 12e7 c0be
00000020: 7016 73be b0dc ecbe a472 c7be 6a5c 41bf
00000030: e9f3 bebe a33a 8dbe 404c a03f 30cc d7be
00000040: 2d81 e4be 34e1 c5be 7a58 b5be ca04 cdbe
00000050: 07ab 8ebe 2ac8 9abe 8fdf 55bf cb3e 0abf
00000060: 84e1 bbbd 5513 e83d e0c5 50be d9c6 fabe
00000070: ab2a c7be 42c5 40be 7d27 4dbf 5b3d a2be
00000080: 966a b4be 4067 1abe 5a80 0dbf 041f debe
00000090: a1ba e8be c2f7 8abe 800a d5be a8cc 65be
000000a0: 24e6 10bf 75e6 a1bd be10 e8be 816c 89be
000000b0: eb79 23bf 1f0b f7be 6340 8fbe 90d2 00bf
000000c0: a927 dcbe 94f5 64bf aaa9 0bbf 9ac9 51bf
000000d0: c977 8bbd 51c8 fbbe 7dc8 edbe 1358 eabd
000000e0: 3f64 edbe 0377 babe 75a3 e3be 1754 a33f
000000f0: ceed 93be 0971 eabe 947b f5be 1889 f0be
00000100: 112e d7be 0645 d2be cc30 0ebf b842 843f
00000110: f0b2 afbe 7362 ddbe 87f5 d6be bc28 16be
00000120: 491b 0ebe ce9a 93be b5b9 98be b142 7ebd
00000130: d13c 13be feb5 febe aab8 b73f f750 913f
00000140: cf9d febe 2f51 a0be b937 b1be b128 afbe
00000150: 2093 d5be c180 2e3f 2ef5 09bf 461c 02bf
00000160: b761 9bbe c6b8 cdbe 01c4 79be debb 00bf
00000170: a44a 2fbf a828 b1be d0e0 f5be 28a3 abbe
00000180: e9bd a2be c68a 9cbe eabb d9be c702 d8be
00000190: a08f 2e3d 3f22 343c 75a8 253e 8903 1040
000001a0: 4942 b23c 31d8 00be ed61 e2be a74a 07bb
000001b0: 6cbb 463e e4c6 463e 0871 a13d c415 dbbe
000001c0: a7d9 563d bc69 84be 2be4 0b40 8ccd cb3d
000001d0: 1987 c7bc d4f0 563d c9af 623e fad4 15bf
000001e0: a93a a6be 4cb1 47be 966f f6be 5610 28bf
000001f0: a38c 95be e986 8a3c 72d7 a4bc 6a7a 4a3e
00000200: b695 adbd c30d 9ebe 561e 35bf 1c36 6bbd
00000210: f620 cc3c 3ec2 e9bd a88b 08bf b110 8cbe
00000220: 2438 66bf 047d e0be ad9a f73d d281 59be
00000230: adf4 f23d 347b 4d3d 84eb d9be 23d5 05be
00000240: de34 55bf ea4b cbbe 0a16 31be 17de 1d3d
00000250: bf8b 373e ff39 10bf 1d08 163e 62df 29bf
00000260: d874 a0be b4b3 ac3d 8b9e 2a3e 0b53 80be
00000270: 0c8c 3b3e 33b2 bd3d 5210 d4be f8ba 0640
00000280: 3c2b 1ebe a892 ccbd 00c6 f33d ae8d 65be
00000290: d2dd a5b9 5d8b 313e 37fa 4d3d 0df2 f43f
000002a0: dd76 8abe adf3 4e3e 0dac 483e 31e7 d3be
000002b0: ab4b 98bd 71bd f6bc 7c04 d93d 92ae 84be
000002c0: c6ae 55be e068 a2be 7e25 f13f e7ac ef3f
000002d0: fa09 fe3b 2da8 973d 2c00 26bd 8e53 053e
000002e0: 70b8 263d 30cd 173f d9e3 403d 450d cdbc
000002f0: 8f1b cabe b796 f63c aa4c 29bf 322e 7839
00000300: f1d2 40bf 53a6 17bc c81e a13d 2601 473c
00000310: c5e8 12bd 2e6b 77bd 5c6f 97bd 31e4 68bd
00000320: fc5c f63e 2f99 a73e 89ec 043f 2251 973f
00000330: d97d fb3e c4cd 72be e994 ff3e 6400 f63e
00000340: 26a4 ca3e d4c5 cd3e 368b cc3e be22 083e
00000350: d8fc 0a3f 3939 79be 1bec 9a3f 61f1 093f
00000360: 57b9 d93e acb0 b73e fee1 093f 5239 203e
00000370: 1498 333d 6f09 30bd 746d 7e3d 6b09 9bbd
00000380: f963 9cbd 615c 92be b66d 45be f130 083f
00000390: 861b 453e 7c36 f6bd 19e4 d63d 433e ac3e
000003a0: 0e89 053f 7746 033e b948 08bf 6d2e cd3d
000003b0: 9a6b 8e3d 6644 66be d609 ef3e 7e2f 5e3d
000003c0: bd46 ca3e ab7e 983d 6c7a a33e a241 d83e
000003d0: 0ece c4bc de5e fbbd 31d1 843e 9d7c d43e
000003e0: b596 103f 52a0 cd3e 7a48 c23e 3ab2 403d
000003f0: ad0b 85be b56e c53e 2f36 0c3f d5bd e3bd

mlp3.bias f4 [312]
0.9894214 2.2016418 1.2854477 0.712365 2.0159025 1.396881 1.0118328 2.1299696
0.87878346 1.0125867 1.9370219 1.1953914 1.1737715 1.5928876 1.198542 1.0119538
1.3016652 0.9268567 0.47879696 1.5986338 0.8901551 1.2651088 1.2955017 0.9315543
0.92943037 1.4532515 0.55895483 0.25119784 1.3960637 0.8467043 0.37905344 1.045627
0.87633514 0.7512966 1.1133846 0.5956248 0.4019921 1.19123 0.62215275 0.7104421
0.9263005 0.39768445 1.0325115 1.048935 0.5606091 0.7972133 1.0918093 0.05367329
0.8823624 1.0812036 -0.032839566 0.74839747 1.1653129 -0.012813405 0.5595222 1.0381652
0.17158297 0.30335596 1.1149477 0.29120153 0.64771116 1.454952 0.39495766 0.20254666
1.1335541 0.34109965 0.51108664 1.3115597 0.5929617 0.036297344 0.9826547 0.28376096
-0.17376791 0.92319494 0.031208409 -0.14100653 0.70478565 0.6157756 -0.03246894 0.6323495
0.7554844 -0.41958818 0.6511738 0.34441566 -0.2945519 0.8106009 0.6966098 0.14304051
0.83182037 0.02411296 0.07135556 0.7068175 -0.18524458 0.19229797 0.41524202 0.03310382
0.2503964 0.31210613 -0.1570525 0.58189994 0.474339 0.11879329 0.45794815 0.5548236
0.10326412 0.8236783 0.14760442 -0.20107599 1.0814055 -0.18150206 -0.035256132 0.6581967
-0.029003596 -0.58448774 1.1906773 0.25430432 -0.17190447 0.52535397 0.5166981 0.33923656
0.07827432 0.6003546 0.6148065 0.6416377 -0.1569177 0.3899661 0.6600288 0.049618833
0.6947883 0.6677995 -0.001909182 -0.13754682 0.7906667 0.08475139 0.18609828 0.8576801
-0.5199876 -0.028530689 0.6746936 -0.78089863 0.15275057 1.2180324 -0.4888119 0.24696317
1.1994567 -0.6671899 -0.118964665 0.45210713 -0.2455889 -0.39955592 0.64936596 0.060407054
-0.60968655 0.25388297 -0.39649165 -0.35753146 -0.027921043 -0.33688837 -0.3734831 -0.21816546
-0.78113544 -0.19861531 -0.041324146 -0.8477726 -0.061908375 -0.2673171 -0.4107565 -0.16271631
-0.33648425 -0.709285 -0.0133430995 -0.12897913 -0.24269162 -0.041873284 -0.25359684 -0.36836132
0.13335091 0.15001777 -0.601035 0.09983802 0.29460812 -0.9447698 0.07022232 0.13723099
-0.82820505 0.28732806 -0.05714916 -0.7186568 0.24073459 0.011106529 -0.69876766 0.30682254
-0.12957849 -0.6077433 -0.02895612 0.11487431 -0.57071203 0.5505255 0.12390878 -0.11127174
0.6068173 0.18151926 -0.753671 1.0149807 0.28580177 -0.29484898 0.5744193 -0.15331164
-0.3569766 0.26092336 -0.32764614 -0.68467516 0.28262928 -0.53800863 -0.3694388 0.064880624
-0.67123073 -0.6244903 0.49929562 -0.79672164 -0.5928906 -0.15078926 -0.69647247 -0.34493324
-0.10224531 -0.96000814 -0.1876675 0.0011410713 -0.9773764 -0.09150148 0.13164188 -1.3701254
-0.33504218 -0.12470671 -0.9794212 -0.020478964 -0.43379474 -1.0470845 -0.5002321 -0.4396085
-0.86529917 -0.41406968 -0.5996093 -1.0514807 -0.7645351 -0.62097883 -1.286639 -1.1406884
-0.69230145 -0.7342714 -1.1006595 -0.78436345 -0.8026337 -0.91963726 -1.0472721 -0.66644496
00000000: b94a 7d3f b3e7 0c40 8d89 a43f 8d5d 363f
00000010: 8c04 0140 ffcc b23f bd83 813f 6c51 0840
00000020: f4f7 603f 719c 813f 55f0 f73f 9602 993f
00000030: 253e 963f bee3 cb3f d369 993f b487 813f
00000040: f79c a63f 7b46 6d3f e024 f53e 08a0 cc3f
00000050: 34e1 633f 16ef a13f 00d3 a53f 587a 6e3f
00000060: 26ef 6d3f 2504 ba3f aa17 0f3f 019d 803e
00000070: 37b2 b23f 9dc1 583f 4b13 c23e 1bd7 853f
00000080: 8057 603f f954 403f 6383 8e3f de7a 183f
00000090: e9d1 cd3e 3a7a 983f 6745 1f3f 89df 353f
000000a0: 0822 6d3f 4c9d cb3e 5629 843f 8143 863f
000000b0: 1484 0f3f 2c16 4c3f 68c0 8b3f 86d8 5b3d
000000c0: 81e2 613f e164 8a3f c882 06bd fa96 3f3f
000000d0: f928 953f 51ef 51bc d93c 0f3f 99e2 843f
000000e0: 72b3 2f3e 7951 9b3e 9bb6 8e3f 5e18 953e
000000f0: 66d0 253f de3b ba3f e437 ca3e 6468 4f3e
00000100: 4d18 913f 9da4 ae3e 93d6 023f 30e1 a73f
00000110: 57cc 173f 86ac 143d 428f 7b3f 1e49 913e
00000120: 37f0 31be 8156 6c3f c7a8 ff3c 0464 10be
00000130: d56c 343f 78a3 1d3f 27fe 04bd a8e1 213f
00000140: 6d67 413f 43d4 d6be 53b3 263f 4057 b03e
00000150: 82cf 96be 8a83 4f3f 0555 323f 3679 123e
00000160: 2ef2 543f 8b88 c53c dd22 923d fef1 343f
00000170: c1b0 3dbe c2e9 443e 9a9a d43e df97 073d
00000180: f533 803e 60cc 9f3e 5fd2 20be 65f7 143f
00000190: 90dc f23e e549 f33d 2e78 ea3e eb08 0e3f
000001a0: 247c d33d 95dc 523f 9d25 173e dde6 4dbe
000001b0: 7f6b 8a3f addb 39be bc68 10bd 947f 283f
000001c0: f398 edbc fda0 15bf 1d68 983f 2d34 823e
000001d0: ba07 30be 997d 063f 5446 043f 6ab0 ad3e
000001e0: 494e a03d d7b0 193f f563 1d3f 5e42 243f
000001f0: 09af 20be a3a9 c73e a6f7 283f 1e3d 4b3d
00000200: a5dd 313f e8f4 2a3f 853d faba 13d9 0cbe
00000210: 2269 4a3f 2392 ad3d 8c90 3e3e ec90 5b3f
00000220: e81d 05bf 31b9 e9bc b8b8 2c3f f9e8 47bf
00000230: a56a 1c3e 7ce8 9b3f 8e45 fabe eae3 7c3e
00000240: cc87 993f f5cc 2abf bfa3 f3bd 967a e73e
00000250: a87b 7bbe 9892 ccbe d93c 263f 636d 773d
00000260: 6b14 1cbf f3fc 813e f400 cbbe 5d0e b7be
00000270: acba e4bc a27c acbe 2d39 bfbe c466 5fbe
00000280: 7ef8 47bf d061 4bbe 8243 29bd a007 59bf
00000290: a393 7dbd c9dd 88be ad4e d2be 1b9f 26be
000002a0: aa47 acbe b493 35bf 049d 5abc 1b13 04be
000002b0: 2784 78be 5283 2bbd 72d7 81be db99 bcbe
000002c0: 248d 083e 429e 193e 6edd 19bf e077 cc3d
000002d0: e0d6 963e 6fdc 71bf b8d0 8f3d 4886 0c3e
000002e0: 3f05 54bf aa1c 933e 3d15 6abd e4f9 37bf
000002f0: 2183 763e 29f8 353c 70e2 32bf d817 9d3e
00000300: 39b0 04be 1195 1bbf 6335 edbc 3943 eb3d
00000310: 2f1a 12bf 3def 0c3f e3c3 fd3d 70e2 e3bd
00000320: 6158 1b3f 2fe0 393e 95f0 40bf e3ea 813f
00000330: 9c54 923e 72f6 96be 250d 133f bafd 1cbe
00000340: a3c5 b6be bf97 853e 3cc1 a7be df46 2fbf
00000350: c9b4 903e efba 09bf 1527 bdbe 22e0 843d
00000360: c7d5 2bbf 99de 1fbf ada3 ff3e f3f5 4bbf
00000370: aec7 17bf 8068 1abe 054c 32bf 179b b0be
00000380: fd65 d1bd 18c3 75bf e92b 40be 0090 953a
00000390: 5735 7abf 2165 bbbd 21cd 063e 4560 afbf
000003a0: a68a abbe 3b66 ffbd 59bb 7abf 80c3 a7bc
000003b0: 581a debe dd06 86bf 360f 00bf 5e14 e1be
000003c0: 3f84 5dbf f100 d4be ff7f 19bf eb96 86bf
000003d0: 93b8 43bf 78f8 1ebf 96b0 a4bf 1402 92bf
000003e0: ab3a 31bf 36f9 3bbf 69e2 8cbf 0bcc 48bf
000003f0: 6779 4dbf 596d 6bbf 030d 86bf 239c 2abf
