cGAN_Code/Molecular_Dynamics_GAN/output/pretrain-decoder.pt (torch, 155031 bytes, 6 tensors)

mlp1.weight f4 [50, 32]
00000000: ea1e e73e 5a2a e13e cffd 94be df18 813d
00000010: 5fd7 943d e185 00bf 43db dbbd d96d 223e
00000020: a036 a23e fa65 563d ae4a ebbd dbd4 913e
00000030: 3b8b ed3e 22b4 a0be 0f83 0cbe ad23 e9bc
00000040: 73ac 0fbe 210a a6be b82d 11be 8bb1 01bd
00000050: 6f5a 46be b1cb ae3d fadb b6be 6b4f 31be
00000060: ddd9 f13d e730 5c3e f038 1c3e 3dc2 543e
00000070: 2f43 80bd 4fd3 a0be fd09 28bd 07e2 a5bc
00000080: 9739 4d3f c094 58be 637a ae3d a107 e1be
00000090: 33df b2bc 95a9 80be 7265 a53d f351 a2be
000000a0: c869 063e 5fdb e0bb dd19 b1be d8a6 f43c
000000b0: 21a6 0abe c663 02be 6077 053e 9626 6e3e
000000c0: 64fd abbe 6fc5 90bd eed7 8fbe ed09 70be
000000d0: 690e 083e edd9 a2be ea24 ae3d 8e5d 363e
000000e0: a025 25be d857 15bd 4ae0 f53e d5bf 8d3d
000000f0: ff27 a03e 9885 8fbe 8d59 443e 1574 bc3e
00000100: 4aad 663f 1525 e63d 14b5 16be 8036 a13e
00000110: 983b cebe cb19 85be 582b c23d 4448 18be
00000120: fc6f d13e ae8c d3bc 8208 2bbf 5d48 3bbd
00000130: f027 edbe b1a1 a7be 7a1d 1cbe 8c30 8a3d
00000140: fac5 173c cf11 6fbd fd80 363e 9fd0 123e
00000150: 5169 c9be 59f9 cebd 7a3d fbbe 3817 883e
00000160: f2ee 0ebf 8a26 b0be 63c7 18bd 4c70 93bc
00000170: decd 4bbe 4fef ff3d f44a 6e3e 459c 6b3e
00000180: 50fc c53f 9127 10be 5e5c 85be 3a56 e73d
00000190: e9aa c23d b565 623d 66d9 b1bd 0255 393e
000001a0: 40c6 e7bd f542 c0bd be30 71bd cacb 06bd
000001b0: 4231 c7bd aec4 943d 428d d93d 943f 77bc
000001c0: 0a0d 9fbd a4a9 d7bc b8b4 063e cfdd 90be
000001d0: c85c 84be 7299 3b3e 3dc5 86be dc49 623e
000001e0: 49e7 b93e 44fd cd3d 8766 5ebe 91c7 a1bd
000001f0: fa4e b03d 058d 903e bfca 0ebe 23a7 babd
00000200: 9ad1 ad3f d11f 97be ffbc 443d 69d1 19be
00000210: 40cf 91bd cb9c af3e 997e bf3e abf4 c4bd
00000220: d245 b7bc 9fff 0abe 4438 3abe 903f 8cbd
00000230: 4261 73bc ba0e 36be d215 f23c 1f0a ddbd
00000240: 0cd6 5dbe 37cc ad3e 7fba 333e 5da1 89bd
00000250: 5095 91be 21c9 5cbd 267a 733e a9e2 073e
00000260: ce9b 293e 79f1 dbbe a874 2f3e 3c73 6f3e
00000270: 8fb1 ecbe ea25 5e3e 9376 29be 8b51 2f3d
00000280: 96ec 663f 070a ee3e 9df3 483e 5b36 a63e
00000290: f8b9 b2be cec9 c1be 14aa 41bd 8cb4 00bf
000002a0: c774 113f 107c 713e de07 25bd 5eae ea3e
000002b0: 5112 853e 1dc2 93be 6977 b0bd df20 e4bd
000002c0: 59a2 c23d db61 113e 882b 613d fe68 91bc
000002d0: e74b 5bbe ef72 2e3e dbdb 96be d768 ebbd
000002e0: d368 9fbe 7f4d a4be eb45 0a3e 8cf1 113d
000002f0: f901 203e 9522 68be 2ce1 823d 2900 813d
00000300: ec50 1b3f 137f 633e edf3 85bd 32a2 f33d
00000310: 31cd d3be ed33 02bf cd88 e6bd 732b 2d3d
00000320: 9fd7 383f bf82 ae3e 0f09 cbbd 86ab d83e
00000330: 4484 18bd 8460 b2be 30d6 c23d 0598 513e
00000340: 2417 443e 1214 01bf 74ef e2be 3eee 1ebd
00000350: 98a8 b1be 6fae 6fbe 96f1 93be 9fa6 4abe
00000360: 77e0 15bd 918e f93d 1648 133e 505c 493e
00000370: 47c1 3dbf 0602 bdbd 957f ce3c ace8 f53d
00000380: d5ab 8b3f 8d0a 86be f359 c9bd 6de9 7e3d
00000390: a316 723c 091f 33bf 6e39 153e 0063 fcbe
000003a0: 1c48 e3bd 2d61 353c 1f88 ff3d 5a5f 4cbe
000003b0: f88e a43e 7ee1 39bd e4ed 883e b141 a2be
000003c0: e560 a83d 6ef5 753e 9ad4 1bbc 94ef 00be
000003d0: 40e5 f13e 134f 74be 02a4 c33a afb6 8a3e
000003e0: cfde 3f3e 230c 8f3e b28d c73e bf57 473e
000003f0: 7dc6 6ebe 640f c53c b348 193d e944 a23e
0.45140773 0.43977624 -0.2909989 0.06303572 0.07267641 -0.50204283 -0.1073518 0.15862216
0.316823 0.052343346 -0.114888534 0.28482708 0.46395287 -0.3138743 -0.1372187 -0.028459394
-0.14030628 -0.32429603 -0.14177597 -0.03166346 -0.19370435 0.08534945 -0.35714704 -0.17315452
0.11809132 0.2150303 0.15256095 0.20777221 -0.06262814 -0.31411216 -0.04102515 -0.02024938
0.80166 -0.21150494 0.08519437 -0.43951133 -0.021834945 -0.2512938 0.0807599 -0.31703147
0.1312629 -0.0068620886 -0.34590045 0.029864714 -0.13539936 -0.12733373 0.13033819 0.23256907
-0.3359176 -0.070689075 -0.2809443 -0.23441286 0.13286747 -0.3180689 0.085031345 0.17809126
-0.16127634 -0.036460727 0.4802268 0.06921355 0.31280515 -0.2803161 0.19174786 0.36807314
0.9010817 0.112375416 -0.14717513 0.31486893 -0.4027984 -0.2599624 0.094809234 -0.14871317
0.4090575 -0.025823917 -0.66809857 -0.045723308 -0.46319532 -0.32740548 -0.1524562 0.06747541
0.00926351 -0.058366593 0.17822643 0.14337395 -0.39338163 -0.10106153 -0.4907034 0.26580215
-0.5583335 -0.34404403 -0.037299525 -0.017997883 -0.19902751 0.12496816 0.2327078 0.23008831
1.5467625 -0.14077593 -0.26047033 0.11295743 0.09505255 0.055272777 -0.086840436 0.18098834
-0.1131711 -0.09387771 -0.058884375 -0.032909192 -0.09726192 0.07264076 0.10622646 -0.015090842
-0.07766159 -0.026326008 0.13154876 -0.28294227 -0.25852036 0.18320253 -0.26322356 0.22098488
0.3630927 0.10058072 -0.21718799 -0.078993924 0.086088136 0.2823259 -0.13944529 -0.0911391
1.357959 -0.29516461 0.048031803 -0.1502129 -0.07119608 0.3429931 0.37401274 -0.09616979
-0.02237216 -0.13574074 -0.18185526 -0.06848061 -0.014854731 -0.17779055 0.02955142 -0.10792946
-0.21663684 0.33944866 0.17551611 -0.06720231 -0.2843423 -0.05390275 0.23777065 0.13270058
0.16563341 -0.42957667 0.17134345 0.23383802 -0.46229216 0.2169415 -0.16549139 0.042802375
0.9020475 0.46492025 0.19624181 0.32463345 -0.34907508 -0.37849277 -0.04728134 -0.5027549
0.56818813 0.23582482 -0.040290706 0.45836157 0.25990537 -0.28859034 -0.08616526 -0.11139082
0.095036216 0.14197485 0.054973155 -0.01775026 -0.21415673 0.17036031 -0.2946461 -0.11494606
-0.31134662 -0.32090375 0.13503234 0.035630748 0.15625753 -0.22669442 0.063906044 0.06298859
0.6067035 0.22216444 -0.06540666 0.11896171 -0.41367486 -0.5086048 -0.112565614 0.042277765
0.7220401 0.34084126 -0.09913837 0.42318362 -0.037235513 -0.3483926 0.09513509 0.20468147
0.19149452 -0.5042125 -0.44323313 -0.038801424 -0.3469894 -0.23406385 -0.28895253 -0.19790123
-0.03659102 0.121853955 0.14382967 0.1966412 -0.7412304 -0.092289016 0.02520732 0.12007269
1.0911814 -0.26179925 -0.098316096 0.06223433 0.014775905 -0.6996923 0.14572689 -0.4929428
-0.11097738 0.011070532 0.12477135 -0.19958249 0.32140326 -0.04538106 0.26743996 -0.31690744
0.08221606 0.24019405 -0.009511137 -0.12591392 0.47245216 -0.2385829 0.0014926197 0.27092502
0.18737338 0.27938947 0.38975292 0.19467066 -0.23317905 0.02405519 0.037422847 0.316932

mlp1.bias f4 [50]
00000000: 55e8 9b3e 60d8 c23e 0a3c 093f b42a 8c3f
00000010: 1084 6c3f cb6c 0e3f fefb f43e 3e00 6d3e
00000020: 4a8a 353f 04c5 913e 3e14 ba3d 5a14 753f
00000030: b344 42be 6cbe a3bd f05c 243f e41a b93e
00000040: db20 0a3f 84ce 0a3f 7947 0e3e b74f 063f
00000050: e0b8 103f ffb3 033f bc0a fe3e c99f f7be
00000060: ffec 79be 6760 eebe 4806 253f 6f97 4e3f
00000070: e66a e33e db58 fe3e c0b6 293f 51be 9b3d
00000080: c85b a43f 993d 373f 6a33 293f 7367 393f
00000090: c547 643e 33d1 ef3e 35a8 56be 0ec0 8c3e
000000a0: f8c8 7e3e fd33 c73e 4d63 e73d 8dcb 403f
000000b0: ec09 443f 666e ff3b 46d2 ab3e 080c d13e
000000c0: cdb7 513e 7ffe 343f
0.30450693 0.38055706 0.5360724 1.0950532 0.9238901 0.55634755 0.47848505 0.23144624
0.7091414 0.28470623 0.09085892 0.9573418 -0.18971519 -0.079953045 0.6420431 0.36153328
0.53956383 0.5422137 0.13894452 0.52465385 0.56532097 0.5144653 0.49617565 -0.48364094
-0.24406813 -0.46557924 0.6446271 0.8069982 0.44417495 0.49677166 0.6629448 0.07604659
1.284051 0.71578366 0.66094077 0.72423476 0.22293003 0.46839294 -0.20962603 0.27490276
0.24881351 0.3890685 0.11298237 0.75310594 0.7657764 0.007795143 0.33558863 0.40829492
0.2048027 0.7070083

mlp2.weight f4 [100, 50]
00000000: d945 f5be 6e0f 2dbf 40ef 1cbf f036 2bbf
00000010: 8e59 0dbf 395f e3be d660 fcbe 8b83 0fbf
00000020: d63e e9be 0f9f 3abf 5779 12bf c74f 49bf
00000030: dce0 16bf 0eb3 c3be 8214 20bf 36eb 12bf
00000040: 3169 1bbf 26ef 37bf 969f e7be 51f2 d2be
00000050: a239 4dbf a3fe 33bf 1d64 fabe d0e7 41bf
00000060: c560 02bf 8ba5 ffbe bcc1 1bbf f756 25bf
00000070: 0b9d eebe 7479 11bf 2d6d 09bf 8432 f2be
00000080: 935b 12bf dd0f 34bf 18e0 31bf b3c9 17bf
00000090: 6478 01bf 1aaf 08bf efd6 edbe 6ab9 02bf
000000a0: 4e3a 1cbf aeb5 22bf 6476 3dbf 2e35 40bf
000000b0: 277e 0bbf ddec 3abf 7b99 06bf 06b9 efbe
000000c0: 9146 27bf 1e5d 41bf 9486 35bf c527 19bf
000000d0: b6ef 0dbf a942 1ebf d907 2bbf 5f94 39bf
000000e0: aae5 00bf dea6 23bf ed46 1abf 5691 03bf
000000f0: 2e18 17bf 0e92 10bf a295 2cbf 9120 2fbf
00000100: 0540 0dbf 2af3 2cbf 8797 1cbf 5aa7 1dbf
00000110: d492 ccbe 79c4 2abf c85d 10bf b365 2fbf
00000120: df05 d0be 3998 d6be 3034 11bf 2cb3 15bf
00000130: 0eab 25bf d937 fbbe 7cac 40bf c3c5 20bf
00000140: 1435 e9be ac6c f3be ec36 14bf 7589 f5be
00000150: 5493 10bf a7dd fdbe ec88 28bf 75dd 33bf
00000160: 4d9f ffbe 7da8 31bf a750 17bf f438 33bf
00000170: b982 16bf 5781 12bf 6521 0ebf 81b7 1dbf
00000180: 1df5 11bf c73f f1be a4ca 10bf 2474 10bf
00000190: 3002 31bf 08b0 1cbf ce87 29bf e79b 1ebf
000001a0: d813 fabe 34f2 11bf bd27 04bf d3d6 33bf
000001b0: 10dc 03bf 05ee 11bf 1444 10bf 2124 3fbf
000001c0: f56d c3be 95b4 26bf b6c7 30bf b86b 1fbf
000001d0: ae11 2bbf f7cb 0cbf 84c7 e5be 4886 18bf
000001e0: 735a 26bf bc02 cdbe add6 24bf 3a14 37bf
000001f0: d254 24bf c64f 0ebf e542 34bf 817d eebe
00000200: c57b f6be 63e9 f4be 3b84 2cbf 93a4 01bf
00000210: 0b76 13bf c5ac 21bf a2a0 1abf ea52 08bf
00000220: b4b1 22bf 4285 14bf 7304 14bf d581 10bf
00000230: 6727 1ebf 5da0 1dbf 4243 22bf 3b08 e8be
00000240: 9138 efbe 0568 0ebf ba04 18bf 9f06 0abf
00000250: a8cc 40bf e673 10bf a20c 073f e8f0 cf3e
00000260: c4f5 0e3f f49b 023f bd83 f63e 0006 f83e
00000270: 39b0 da3e d4b5 ca3e cce1 053f 4ad7 e43e
00000280: 19f1 dd3e ff2e bb3e 213e 983e 9c10 003f
00000290: f08f 363f ed43 b43e 2bdb 9c3e 24fc 043f
000002a0: 5d54 093f d0bc aa3e 96d7 a33e f375 b73e
000002b0: d761 1a3f c338 7e3e c27a be3e c9c7 e23e
000002c0: 2599 143f b306 013f c4d7 f13e b454 363f
000002d0: 7249 ff3e ce3d 133f cf79 193f 9ef5 d63e
000002e0: 42c7 283f 8296 1c3f b445 0b3f 4dab 5b3e
000002f0: a1a4 563e e7dd 843e 3211 033f 2825 e83e
00000300: 8620 a13e b27d dd3e 1769 193f 2eb0 413e
00000310: b0c2 a33e f874 e63e b597 d13e 85d2 cd3e
00000320: de2f f8be 6bf3 1bbf 4453 4fbf 9400 0abf
00000330: 1bcd 43bf 5fce 31bf 8907 48bf e271 eabe
00000340: 69c3 35bf 1ae3 33bf 087d 19bf 6462 21bf
00000350: 4fa8 10bf 291c 03bf 0b9a e3be ec9d 2dbf
00000360: 2340 eebe f94f 01bf d57c febe b05d 15bf
00000370: b662 24bf 0ac9 14bf d309 1cbf 1a27 2cbf
00000380: 0518 0cbf 0a6f 19bf f8da 2cbf a3b4 2abf
00000390: 71b7 2fbf a75e 30bf 0da8 07bf ff9e f0be
000003a0: 0bf6 40bf 386b 0bbf 67bb 02bf 2e86 20bf
000003b0: f4c0 ddbe 1c8f 23bf 7e44 0dbf 3587 2abf
000003c0: 04d8 06bf b5f0 1abf deae 15bf ef6e 1cbf
000003d0: 9ba9 1cbf eee2 1abf 4526 c7be aa68 08bf
000003e0: 602b 00bf 3cd1 0abf 0aa5 f7be ecfc d8be
000003f0: 3415 19bf 8dba 27bf 9164 2ebf 274e 03bf
-0.47904852 -0.6760167 -0.61302567 -0.668807 -0.55214775 -0.44408587 -0.4929263 -0.56060094
-0.45555753 -0.72898954 -0.572164 -0.78637356 -0.5893686 -0.38222545 -0.6253129 -0.57390153
-0.60707384 -0.71849287 -0.45238942 -0.41200498 -0.80166066 -0.7031042 -0.48904505 -0.7574434
-0.5092891 -0.49930987 -0.6084249 -0.6458582 -0.4660419 -0.5682595 -0.53682214 -0.47304165
-0.5717098 -0.70336705 -0.69482565 -0.59292144 -0.50574327 -0.53392184 -0.46453044 -0.5106417
-0.61026466 -0.6355847 -0.74008775 -0.75081146 -0.5448937 -0.73017675 -0.5257794 -0.4682085
-0.6534205 -0.7553271 -0.70908475 -0.5982631 -0.55443895 -0.61820465 -0.6680885 -0.7249202
-0.5035044 -0.63926494 -0.60264474 -0.5139364 -0.5902127 -0.5647286 -0.6741582 -0.6840907
-0.5517581 -0.6755854 -0.6116871 -0.61583483 -0.3995577 -0.66706043 -0.563931 -0.68514556
-0.4062948 -0.41913012 -0.56720257 -0.5847652 -0.64714134 -0.49066046 -0.7526319 -0.6280176
-0.45548308 -0.47543848 -0.57896304 -0.47956434 -0.56474805 -0.4958317 -0.65833926 -0.7025979
-0.49926224 -0.6939772 -0.5910744 -0.7000878 -0.58793217 -0.57228607 -0.55519706 -0.6160813
-0.5701464 -0.4711897 -0.56559205 -0.56427217 -0.6914396 -0.612061 -0.66222847 -0.6195664
-0.48843265 -0.570102 -0.51623136 -0.7024967 -0.51507664 -0.57003814 -0.5635388 -0.74664503
-0.38169828 -0.65119296 -0.69054735 -0.6227374 -0.6682385 -0.54998726 -0.4487878 -0.59579897
-0.64981765 -0.4004115 -0.6439007 -0.7151524 -0.64191926 -0.55590475 -0.7041457 -0.46580127
-0.48141304 -0.4783431 -0.6738927 -0.50641745 -0.57601994 -0.6315425 -0.60401356 -0.53251517
-0.63552403 -0.58015835 -0.5781929 -0.5644811 -0.61778873 -0.6157282 -0.6338388 -0.4531878
-0.46722844 -0.5562747 -0.5938221 -0.53916353 -0.7531228 -0.56426847 0.5275365 0.40613484
0.5584376 0.51019216 0.48147383 0.48442078 0.42712572 0.3959185 0.52297664 0.44695503
0.43348005 0.36559293 0.297349 0.50025344 0.7131338 0.35208073 0.30635962 0.51947236
0.53644353 0.33347178 0.32000417 0.35832176 0.6030554 0.2482634 0.37203032 0.4429305
0.5804618 0.5040085 0.4723493 0.71222997 0.49860722 0.5751618 0.5995149 0.41984266
0.65929043 0.61167157 0.54403234 0.21452065 0.20961238 0.25950548 0.5119811 0.45340848
0.31470126 0.4325996 0.5992598 0.18914863 0.31984472 0.45011115 0.40936056 0.40199676
-0.4847402 -0.609183 -0.8098643 -0.5390713 -0.7648484 -0.6945552 -0.781365 -0.4579001
-0.710013 -0.70268404 -0.5995641 -0.6304076 -0.5650682 -0.51214844 -0.44453463 -0.67819095
-0.46533307 -0.50512654 -0.49704614 -0.5834608 -0.6421312 -0.5811926 -0.6095249 -0.67247164
-0.5472415 -0.5993506 -0.6752162 -0.6668188 -0.68639284 -0.6889443 -0.529908 -0.46996304
-0.7537543 -0.5446048 -0.51067203 -0.6270474 -0.43311274 -0.6389024 -0.55182636 -0.6661256
-0.52673364 -0.6052354 -0.5846995 -0.6110677 -0.611963 -0.6050252 -0.38896385 -0.53284705
-0.50066185 -0.54225516 -0.48368102 -0.42380464 -0.5979798 -0.6551903 -0.681222 -0.51291126

mlp2.bias f4 [100]
00000000: 41c4 55bf e580 40bf 4dc6 37bf fec5 8d3e
00000010: cc67 58bf 5829 2abf 10c4 24bf 7d4b 58bf
00000020: eddb 3dbf e8f0 67bf 82fa 2cbf a529 80bf
00000030: fe4f 5ebf 5f5e 39bf c63f 053f 5d70 3dbf
00000040: d3ad 36bf 23d0 48bf 1084 5dbf cb76 51bf
00000050: 9853 36bf fb1b 4ebf e577 49bf 8063 6ebf
00000060: 9f58 3ebf 1cad 10bf 9579 12bf cc04 22bf
00000070: e0ee 7cbf 5310 51bf 3316 14bf ef2e 2cbf
00000080: 33b2 29bf 9492 41bf 12d2 3fbf 412a 31bf
00000090: 295c 23bf dcb3 2dbf 8fb2 44bf 3d1f 39bf
000000a0: db7f 50bf ee5d 4fbf f369 2dbf 9149 0ebf
000000b0: 3a99 14bf 1e22 1dbf 8917 2abf 3f0e 2dbf
000000c0: b90a 57bf 49dc 2fbf 8a08 4bbf 9887 41bf
000000d0: c29c 04bf b7d5 4ebf 343c 55bf 7408 3bbf
000000e0: 8bfe 25bf 0b6b 3bbf f489 29bf 5f9a 23bf
000000f0: 6c77 1cbf 6ee5 54bf 9022 46bf 0b50 1ebf
00000100: f289 42bf 321c 51bf 1be7 6bbf 90e4 cf3d
00000110: 1a6b 5bbf cecc 60bf 97bb 5fbf 16c9 34bf
00000120: 5faa 3fbf ea14 12bf 9b10 2ebf 836d bcbe
00000130: ffc0 49bf 52f4 46bf f884 ddbe 50dd 33bf
00000140: 36a2 48bf c169 3dbf 8156 38bf d6ec 34bf
00000150: e9eb 5fbf e7a1 17bf a392 21bf c35f 26bf
00000160: 3c9f 39bf 5b94 39bf 70f5 d2be cd45 4abf
00000170: 2109 20bf 7aa6 44bf e672 11bf 3041 63bf
00000180: aa48 36bf 0f91 6cbf fcb7 3ebf 7100 76bf
-0.83502585 -0.7519668 -0.7178696 0.2769012 -0.8453338 -0.66469336 -0.6436167 -0.84490186
-0.74163705 -0.9060197 -0.67569745 -1.0012709 -0.8684081 -0.72409624 0.52050436 -0.7399958
-0.71358985 -0.7844259 -0.86529636 -0.8182189 -0.71221304 -0.80511445 -0.7869857 -0.93120575
-0.74353975 -0.56514144 -0.5721677 -0.6328857 -0.98801994 -0.81665534 -0.57846373 -0.67259115
-0.66287535 -0.75614285 -0.74929917 -0.692051 -0.638125 -0.6785257 -0.7683496 -0.7231329
-0.8144509 -0.810027 -0.6773979 -0.55581003 -0.58046305 -0.61380184 -0.6644216 -0.6759986
-0.84000736 -0.68695503 -0.79309905 -0.75597525 -0.51801693 -0.8079485 -0.8329499 -0.73059773
-0.64841527 -0.7321021 -0.66226125 -0.63907427 -0.61119723 -0.8316258 -0.7739649 -0.61840886
-0.7599174 -0.8168365 -0.92149514 0.10151017 -0.857103 -0.8781251 -0.87395614 -0.7061933
-0.7486934 -0.5706316 -0.6799409 -0.368023 -0.78810114 -0.77716553 -0.4326551 -0.7025957
-0.78372514 -0.7398949 -0.72006994 -0.7067388 -0.87469345 -0.5923142 -0.63114375 -0.6498987
-0.725086 -0.72492 -0.4120288 -0.7901276 -0.6251393 -0.76816523 -0.56815946 -0.88771343
-0.71204627 -0.9240884 -0.7449949 -0.96094424

mlp3.weight f4 [312, 100]
00000000: c32a dcbe 0ccd bfbe f6a9 8bbe 92bb 16be
00000010: fb2f d7be f2f7 e7bc 54e3 b8be 21cb 9abe
00000020: e9f8 2dbe 1300 d0be 7187 9dbe 55a5 3bbe
00000030: 3776 9bbe cf30 cdbd d06d c23d cfb7 bdbe
00000040: f234 b6be 9715 89be 8d2d 96be 4750 6bbd
00000050: e0c8 72be 4aff 82be db6c cebe 13d1 71be
00000060: e0ef c7bd c0c0 343e 9f43 6fbb 51ef dfbe
00000070: b6c5 86be 2333 1cbe 04bb b7be 21b9 86be
00000080: 949e 8ebe dcfb d3bd 2eac 0dbe a58f b9be
00000090: 47c8 2ebe c02b a3bd 99c6 babe a467 3abe
000000a0: 99bd e0be ec51 07bd 6a69 c3bd 3b95 62be
000000b0: 7a0a bbbe f15c 2cbe 121a 65be bf21 d6be
000000c0: 166c b7be 460b a3be d755 eabe af90 88be
000000d0: 91b6 aa3e bd2a d0be 074f ccbe 7053 bbbd
000000e0: b5b2 c3be 6430 96be acf9 2abe e8e4 4ebe
000000f0: ff05 51be ca77 c8be 586b c8be 4387 acbe
00000100: f934 a8be e3c7 a5be 996d debe fcbd 0cbe
00000110: 33fb cdbd 921d c3be 199a a8be d9ec ebbd
00000120: e6eb b0bd 50b1 68be 32bb 73be 4e7d b23e
00000130: d5ae c3bd da71 69bd 1e72 763e edbe b1be
00000140: 4f52 cabe c397 85be 02aa 88be 60c5 9cbe
00000150: 6fe8 adbe 43ac 9ebe e908 e0be 7d51 ddbe
00000160: efab 6bbe dd3b bebe 6766 8e3e 6270 d6be
00000170: c1e3 d7be cb6e 8dbe 9a82 c2be 9ecd 82be
00000180: 6ab2 47be 737d 79be 6361 c0be d0d6 91be
00000190: 7d7e b33d e03e 493e 4111 543e 960f 0b3f
000001a0: 1017 973d 3c89 65be 2788 263b 829d 1f3d
000001b0: 41bf 6e3e d54b 683e 6cf6 fa3d ba3d d33d
000001c0: e732 b33d 325b 18bd 281f 0e3f 90bb 053e
000001d0: 87af 103d 3bc9 013e 50dc 823e b460 9c3c
000001e0: 9bb5 7dbe a8d7 4abc 46ee 0a3e ed35 533e
000001f0: 1f44 22be ce0b a03e 4ff3 71be db82 633e
00000200: 466c e23d dc72 3cbe bb52 023e 527a d8bc
00000210: 0169 863d 279f 8ebd d060 863d 7dc7 36bc
00000220: 25f0 57be 42c1 61be 9e25 183e dc3b 22be
00000230: e3ef 483e 350e 0abe 14df 8ebe dea2 cebd
00000240: 99a0 bc3c 4586 babd 8ac7 08be d853 ac3d
00000250: 50c7 5d3e c7a5 2f3c 62ee 423e 5a34 303d
00000260: 14ef 463e e707 073e 2dff 473e 0fbe abbd
00000270: ac4f 643e 6c75 013e 5b7d 9bbe c71c e33c
00000280: 37d9 acbd ba5b 83bd bdf0 2e3e 3e15 273d
00000290: 588b 5f3d cb71 5e3e 564c 113e 09bf 853e
000002a0: 285b c0bc 1731 683e cc75 7e3e 81d9 803d
000002b0: 655f 02bd 5a0d 873c 0311 0f3e fd38 203e
000002c0: 6df3 25be 35e4 43be c78f eb3d 3873 c33c
000002d0: 8aac 993d 00f3 d03d d0c8 3a3c b6cc 193e
000002e0: b7d5 b03d bd7c 72bc 9fcf e13d 5091 823c
000002f0: 5aea 6bbe 6cad 3b3d 6301 a23d 412e 3b3d
00000300: 8879 313e b904 4d3d e2d6 173e 8e2d 803d
00000310: 0ec5 463d b7ed 76bc b957 01bd a6b8 923d
00000320: fb50 1b3f e02d 143f b95f 273f a6e3 143f
00000330: 76a6 1e3f cadc 103e d136 2c3f d4e1 183f
00000340: 1c38 043f f3c0 ff3e aead 033f 3af1 893e
00000350: fa63 263f 7e40 d83d 6475 043f 1215 233f
00000360: d7bf 0f3f 5da1 093f b256 253f 4bbc 213e
00000370: ff88 593e 91b6 883e dcec 1a3f 860f 993e
00000380: 1e65 423e d589 aa3d 3f6c babb 8634 203f
00000390: 0937 073f a523 073e ac11 1f3f c780 e53e
000003a0: 7b66 243f 9a0b 843e c3fa 8f3e 647e 033f
000003b0: 6f04 523e 880f b53d e6cc 0c3f 3421 423e
000003c0: d992 143f 3b10 a83d 622b bf3d 401b 053f
000003d0: 4edc 013f 9feb 893e 570e c43e 2c28 0a3f
000003e0: 1e6d 2b3f 5225 2b3f aff7 043f ce3d 1e3f
000003f0: 67f3 79bb d202 0c3f 3304 253f bbf7 793e
-0.43001375 -0.37461126 -0.27278107 -0.1471999 -0.42028794 -0.028316472 -0.36110938 -0.302331
-0.16989483 -0.40625057 -0.30767396 -0.18324788 -0.30363628 -0.10019075 0.09493601 -0.37054297
-0.3558727 -0.26774284 -0.29331627 -0.057449605 -0.2370944 -0.25585395 -0.40317425 -0.23614912
-0.097625494 0.17651653 -0.0036508811 -0.4373727 -0.26322716 -0.15253882 -0.3588487 -0.26313117
-0.2785536 -0.10350773 -0.13835213 -0.36242405 -0.17068587 -0.07967329 -0.36479643 -0.18203598
-0.43894652 -0.03303711 -0.095415905 -0.2212724 -0.3653143 -0.1683233 -0.22373226 -0.4182262
-0.3582465 -0.31844538 -0.45768616 -0.26672885 0.33342412 -0.40657607 -0.39904043 -0.09146774
-0.3822228 -0.29333794 -0.16696805 -0.20204508 -0.20412444 -0.39153892 -0.39144397 -0.33696947
-0.32852915 -0.32379064 -0.4344299 -0.13744348 -0.10057678 -0.38108498 -0.32930067 -0.115197845
-0.08638744 -0.2272389 -0.23801878 0.34861225 -0.09554831 -0.056993343 0.2406697 -0.34715977
-0.3951592 -0.26092348 -0.26692206 -0.30619335 -0.33966395 -0.309908 -0.43756798 -0.43226233
-0.23014806 -0.37155047 0.27812502 -0.41882616 -0.4216595 -0.2762359 -0.37990266 -0.25547498
-0.19501653 -0.24364261 -0.375743 -0.284842 0.0876436 0.19652891 0.20709707 0.5432066
0.07377446 -0.22415632 0.0025410743 0.03896857 0.23315145 0.22685178 0.122540325 0.10314508
0.08749943 -0.037196346 0.5551629 0.1305983 0.035323646 0.1267442 0.2555871 0.01908908
-0.24776308 -0.012380518 0.13567457 0.2062604 -0.15846299 0.31259006 -0.23627971 0.22217886
0.11055808 -0.1840319 0.12726872 -0.026425514 0.06562997 -0.0696395 0.06561434 -0.01115596
-0.21087702 -0.22046378 0.148581 -0.15843147 0.1962276 -0.13481982 -0.2790457 -0.10089658
0.023025798 -0.09107641 -0.13357368 0.084144294 0.21658063 0.010720677 0.19036248 0.043018676
0.19427139 0.13186608 0.19530936 -0.0838586 0.22296017 0.12642449 -0.30369076 0.027723683
-0.08439868 -0.0641398 0.17084022 0.040791743 0.054576248 0.21723096 0.14189276 0.2612231
-0.023480967 0.22674976 0.24849623 0.062914856 -0.031829257 0.016485859 0.13971333 0.1564674
-0.16206141 -0.19130023 0.11502033 0.023858652 0.07503612 0.102025986 0.0114004165 0.15019497
0.08634513 -0.014800248 0.11025929 0.015938431 -0.23038617 0.045819685 0.07910421 0.045698408
0.17331517 0.050053332 0.14828065 0.06258689 0.04852777 -0.015071324 -0.0315778 0.07164125
0.6067044 0.578825 0.65380436 0.58159864 0.6197275 0.14146724 0.67271143 0.59719586
0.51648116 0.49951896 0.5143689 0.26941854 0.649963 0.10559176 0.51741624 0.63704026
0.561521 0.53761846 0.6458541 0.15794484 0.21243666 0.26701787 0.6051767 0.29894656
0.18983886 0.083270706 -0.0056891735 0.62580144 0.5281835 0.13197191 0.6213634 0.44824812
0.6421887 0.257901 0.28121004 0.5136473 0.20509504 0.08840853 0.5500015 0.18957978
0.5803657 0.08206221 0.093344465 0.51994705 0.50726783 0.26937577 0.3829219 0.5396755
0.66963375 0.6685382 0.51940435 0.61813056 -0.0038139464 0.54691803 0.6445953 0.24410908

mlp3.bias f4 [312]
00000000: 9bc9 a1bd 5799 243f 207a 1f3f 43e1 71be
00000010: 2ead 153f a3a5 4b3f 3c28 11be 74fb 053f
00000020: f255 693e fea4 08bd d257 2f3e 2a64 963e
00000030: c6f1 b93e f077 423d 0468 0b3f 1fd4 8c3e
00000040: 1467 ba3e b5c5 223d 32c8 393d 744c 023f
00000050: 7ec0 52be 10d6 cf3e 5227 fd3d 1d0b 9e3d
00000060: a1dd 713e d3ca 783e d286 6dbe b6ea 83be
00000070: aac0 09be 8a0f 9c3e 5af3 71be 94cc b4be
00000080: 8e3b 1c3f 1c3d ee3b 0b17 80be ef3e d33d
00000090: cfdd c0be 803e 0bbf 34e8 d4bc a8a4 253c
000000a0: 48df 2abe e083 8bbe 0fe8 bd3e 0cfa 42be
000000b0: 45a0 abbe 169e 20be eb28 66be dcb3 33bf
000000c0: 15be bdbd 13a2 eabe 9d93 46bf c3ea 5cbe
000000d0: 2f88 2abc e352 6abf 376d 1abf fe07 5bbe
000000e0: ec7d 24bf a04d 15be b7f8 3a3e f281 b7be
000000f0: a50b dc3e b30d eb3e c32a 06be 47cc b5be
00000100: 9b10 fe3e 6dae cdbe fa92 9bbe 5fd9 503f
00000110: c842 6cbe 29fc 23bf 0c4c ab3e 3240 c3be
00000120: 1153 6bbf eb5b 8b3e 9222 2bbf 6167 79bf
00000130: 4098 5c3e e8f8 52bb 44db 59bf c6a6 da3d
00000140: 9d4d 173e 9ee1 93bf e7d7 0e3f 17ee 13be
00000150: c14d 6bbf 7795 b33e 766d 843d 4335 1cbf
00000160: 4292 72bd e657 e5be 1908 5ebf e390 f0be
00000170: d896 bbbe 4894 84be 75c4 a0be 3d5f afbe
00000180: 14a9 f53c bec3 c7be 8546 bebe 49c6 f53d
00000190: 2d9e bb3d af88 afbe d778 0ebe 087d 6f3e
000001a0: c61d a6be a1cb ef3e 30b0 6fbd 5408 e0be
000001b0: 99ff 363f 1cfb c4be fe70 8abe bded d43e
000001c0: 564b 8dbd 7f97 69bf 4214 303f f6c0 d73d
000001d0: 6c46 8ebe 8076 803e 81b4 453e f7ab 2c3e
000001e0: 4902 8dbe 517d 9d3e bf75 c83e ac6b f93e
000001f0: 169c ffbd 8ab8 c13e 88ab 153f 686b 2d3d
00000200: 4a9d 2d3f 6e09 223f df59 eebd e31a 77bd
00000210: bcc1 6a3f 7e48 2fbe a07c 633e e5ee 343f
00000220: 5c09 32bf 809a f23b c141 cb3e 331a 51bf
00000230: 5a33 443e d683 6a3f 86c8 53bf 3ae4 db3e
00000240: 7e05 843f 434f 58bf c893 22be a8d6 0b3f
00000250: d827 7bbe 31de b3be ad75 573f fa4d 343d
00000260: 6315 20bf 5bb5 333e 7d3d abbe aac4 ebbe
00000270: d9eb a7bd 9c68 bfbe 75f0 41bf db14 44be
00000280: 2202 25bf e941 91be feec 05be 3ebb 42bf
00000290: 9b9b cfbe ccff b2be af76 80be daae ccbd
000002a0: e7e3 15bf 76d3 0bbf ba7a 893e 9ef8 21bd
000002b0: d2be d33c f103 6c3d f45d 08bf f03c 1ebe
000002c0: 0f26 abbd 2d36 8e3e 4085 f1be 42fe 3a3e
000002d0: 502c 063f 3232 8ebf 495e 0a3c 85b8 e43e
000002e0: d539 f5be 063e ce3e 7764 b43e 2d0c d7be
000002f0: 3414 1c3f 5b5a a33e 95be 1fbe 0286 b93e
00000300: be85 493e 3451 0abd 12eb 71bb 9b9e ef3e
00000310: 23b1 0b3e 2acc 0d3f 225a b13e edf1 243f
00000320: 8040 f83e a694 033f 0ea7 a33d 820b 883f
00000330: e8ed 6a3f 2a00 a23e d81d b43e 95e9 c63c
00000340: 7b9c 5a3d 6e19 f43e e9d9 80be 1cf1 bbbe
00000350: 75a4 343f c513 3bbe e30b fd3e 48f9 9c3e
00000360: b946 fbbe f66b b23e e6f7 283f 4ede 00be
00000370: 738d ce3e 4abe fa3d 2fb7 2c3e 7090 fa3e
00000380: 7621 5f3e fae0 3abe 730a 853f 0ac4 d03e
00000390: 84aa c43c 43e5 803f 22b0 113f 3cf3 32bf
000003a0: d231 733f f127 583e 2d51 1dbd a4f5 9c3f
000003b0: cd23 84bd 121c 09bf f2fc 043f 1d6e 37be
000003c0: 6b9f 32bf ff6d 4e3f 762a 7abe 6662 9fbe
000003d0: 3c30 c03e f101 b6be 11e0 e8be da6f 233e
000003e0: b0bb 2dbf cb47 8a3d d443 a03d 9ae8 b9be
000003f0: f385 cb3c 3ca9 6f3e 6f86 32bf 49d1 62bd
-0.07899781 0.6429648 0.6229572 -0.23621087 0.58467376 0.79549617 -0.14175504 0.5233681
0.22786692 -0.033360474 0.17123345 0.29373294 0.3631727 0.047477663 0.5445559 0.27505586
0.36406767 0.03973933 0.045356937 0.5089791 -0.20581242 0.40593004 0.123610154 0.077169634
0.23619701 0.24296121 -0.23195961 -0.25765008 -0.13452402 0.30480605 -0.23627988 -0.3531233
0.61028373 0.0072704684 -0.2501758 0.10314738 -0.37669227 -0.5439224 -0.02598963 0.010110058
-0.16686738 -0.2724905 0.3709111 -0.19040698 -0.33520713 -0.15685305 -0.22476546 -0.7019632
-0.09264771 -0.45826778 -0.7756899 -0.2157393 -0.010408445 -0.91532725 -0.603229 -0.21389768
-0.6425464 -0.14580393 0.1825894 -0.35841328 0.42977634 0.4590889 -0.1310225 -0.35507414
0.49622044 -0.4017214 -0.30385572 0.8158168 -0.2307235 -0.6405664 0.33456457 -0.38134915
-0.91923624 0.27218565 -0.66849625 -0.9742337 0.21542454 -0.0032191817 -0.851002 0.10676341
0.14775701 -1.1553228 0.5579819 -0.14446293 -0.9191552 0.3507497 0.064661905 -0.6101877
-0.059221514 -0.44793624 -0.86731106 -0.4698554 -0.36638522 -0.2589438 -0.31399885 -0.3425235
0.02998785 -0.39016527 -0.37163177 0.120007105 0.09161029 -0.3428397 -0.13913284 0.2338754
-0.3244459 0.46835044 -0.058517635 -0.43756354 0.7148376 -0.3847283 -0.2703933 0.4158763
-0.06899135 -0.9124679 0.6878091 0.10534851 -0.27788103 0.25090408 0.19307138 0.16862474
-0.27540806 0.3075967 0.39152333 0.4871496 -0.12480943 0.37836105 0.5846486 0.04233876
0.6781813 0.6329564 -0.11638235 -0.060328376 0.91701865 -0.17117497 0.2221551 0.70677024
-0.6954553 0.0074036717 0.39698604 -0.816806 0.19160214 0.91607416 -0.8272785 0.4294756
1.0314176 -0.84495944 -0.15876687 0.54624414 -0.24526918 -0.35130456 0.84163934 0.044019677
-0.62532634 0.1754965 -0.3344535 -0.4604848 -0.08199281 -0.37384498 -0.75757533 -0.1914858
-0.6445638 -0.28370598 -0.13078687 -0.7606696 -0.40548405 -0.34960783 -0.25090548 -0.09994288
-0.58550876 -0.5461954 0.26851445 -0.03954374 0.025847826 0.057620946 -0.5326836 -0.15452933
-0.083568685 0.27775708 -0.47171974 0.18261054 0.52411366 -1.1109068 0.008445331 0.44672027
-0.47895685 0.40281695 0.352329 -0.42001477 0.6096833 0.31904873 -0.15600045 0.36235052
0.19679925 -0.033768848 -0.0036913794 0.46800694 0.13641791 0.55389655 0.34639078 0.6443165
0.4848671 0.51398695 0.079908475 1.0628512 0.91769266 0.3164075 0.3517902 0.024281302
0.053371888 0.4767565 -0.25166252 -0.3670739 0.7056344 -0.1826926 0.4942313 0.30658937
-0.49077395 0.34847993 0.66003263 -0.12584803 0.40342292 0.12243326 0.16866754 0.48938322
0.21790108 -0.18249884 1.0393814 0.40774566 0.02400709 1.0069965 0.5690938 -0.69902396
0.94997895 0.21108986 -0.038407493 1.2262464 -0.06452141 -0.53558457 0.51948464 -0.17913099
-0.697745 0.8063659 -0.2443026 -0.3112976 0.375368 -0.35548356 -0.4548345 0.15960637
-0.67864513 0.06751975 0.07825437 -0.36310273 0.024844145 0.23404402 -0.6973638 -0.05537537
